grammar_model.pth (torch, 46851 bytes, 3 tensors)

fc1.weight f4 [50, 224]
000000 ad 65 83 be a3 ad a4 3e 57 0c 3b be 95 d7 78 bd
       -0.2566351 0.32163724 -0.18266426 -0.06075247
000010 a0 8a 8e be c7 c0 d1 be a2 f4 c2 3d 3d bc 0a be
       -0.27840137 -0.4096739 0.09519316 -0.1354837
000020 56 1c 2f 3d 3f da 96 3e 1c 48 65 bb 94 0e f2 3d
       0.042751633 0.29463384 -0.0034985607 0.11819187
000030 6a 5d 49 bc 74 bd bb bb 7f d7 1c bc df 97 9d bd
       -0.012290338 -0.0057293717 -0.009572863 -0.07694983
000040 7e ba 27 3e f2 62 15 ba 78 8b f8 3e 91 05 e0 be
       0.16379735 -0.0005698643 0.48543906 -0.43754247
000050 fa 36 71 3b 72 35 cb 3e ed 97 74 bd 6f 3a 79 be
       0.003680645 0.39689213 -0.0597152 -0.24338697
000060 99 c8 61 3d 99 5a 78 be 8a b3 c4 3e 39 ba 5e 3e
       0.055122945 -0.2425331 0.38418227 0.21750726
000070 82 6e 07 be a2 20 01 bd b3 df 78 3e 1e 24 82 bc
       -0.13225749 -0.03152526 0.24304084 -0.015886363
000080 90 b5 88 3d 46 ce c3 be 2f e8 52 3e d0 c3 c9 bd
       0.06675255 -0.38243312 0.20596384 -0.098518014
000090 f0 05 5b 3c d5 64 a7 3e a4 4c 9d be 5a 86 6a bd
       0.013368115 0.32694116 -0.30722535 -0.057257034
0000a0 eb 1a 83 bd 3f 30 2b bd 9c 84 13 3f 78 cd 33 3d
       -0.064016186 -0.041794058 0.5762422 0.043897122
0000b0 b1 6c 55 3d 1a c3 12 bd e6 d6 fd 3c 4a c0 53 bd
       0.05210561 -0.035830595 0.03098626 -0.051697053
0000c0 f9 c0 49 be 21 03 ec 3c bd 4e 12 bd d0 d1 51 bb
       -0.1970252 0.028810086 -0.035719622 -0.0032015927
0000d0 5f 6f 5d be 4a fc 91 3e b9 8b 28 ba f1 e8 86 3e
       -0.21624516 0.28512794 -0.00064295117 0.26349595
0000e0 12 c4 26 be 70 98 2c 3d f0 21 d4 bd 25 e7 37 be
       -0.16285732 0.042137563 -0.103580356 -0.17959268
0000f0 dd bd 5e be f7 55 b7 3e 5f 81 90 3e ba aa 72 3d
       -0.21752115 0.35807773 0.28223702 0.05924485
000100 f4 9a 9a be d5 7a 3e 3d a2 fb 6b 3e e8 16 95 3e
       -0.30196345 0.04650386 0.23045209 0.2911904
000110 5a 77 53 bd b0 49 1a be 98 fc 9b be a3 c0 7a 3e
       -0.051627494 -0.15067172 -0.3046615 0.24487548
000120 ec b7 4f bd dd fb b6 3e 8e f9 39 be f5 af 85 be
       -0.05071251 0.3573903 -0.18161604 -0.26110807
000130 b7 af 5e 3d cc ae ba bd 99 e5 a1 be 3b 68 a5 3e
       0.054366793 -0.09115371 -0.31620482 0.32306084
000140 d5 e6 3f 3d 68 ac 94 3d 97 41 4c be f0 41 5a 3e
       0.046850998 0.072594464 -0.19946896 0.21314216
000150 2e f3 4e bd 23 fa b2 3e 68 4b a8 3e 16 6d e9 be
       -0.050524883 0.34956464 0.3287003 -0.45591038
000160 b2 2a 9a bd f3 70 51 3e f6 b6 c9 be 5c 85 c6 3e
       -0.07527675 0.20453243 -0.393974 0.3877362
000170 78 5e d3 bd 7c ad 98 3e 49 15 94 be 99 aa eb bd
       -0.10320753 0.29819858 -0.2892249 -0.11507148
000180 5b 4a ee bc 10 aa 5e 3e d9 dd e6 bc 43 4c 53 bd
       -0.02908819 0.21744561 -0.028181957 -0.0515864
000190 cf 16 9c 3e f1 50 7d bd 67 5b 9d 3e 09 4a 63 3d
       0.30486152 -0.06184477 0.30733797 0.055490527
0001a0 b7 c0 2b 3c c6 ed 58 bf 1c 2e e4 be b7 d2 c8 3e
       0.0104829585 -0.84737813 -0.4456643 0.39223263
0001b0 3d 82 fc bd 58 20 26 bd d1 fb 9e be 36 7d 9f 3e
       -0.123295285 -0.04055819 -0.31051496 0.31150216
0001c0 5c 4c 0a be 85 f7 15 be 49 89 6c 3d c3 94 a0 bc
       -0.13505691 -0.14645202 0.057748113 -0.019602185
0001d0 84 e8 22 be ea be df bd ef bb 62 bd 4e 4e 12 be
       -0.1590901 -0.10925086 -0.05535501 -0.14287683
0001e0 38 45 ef 3d e6 d2 18 3e 04 c8 88 3c f5 95 4d be
       0.11683124 0.14924201 0.016696937 -0.20076735
0001f0 c1 4d 8e 3e 04 82 9a bd 0e 16 6c bd 61 36 18 3d
       0.27793697 -0.0754433 -0.05763822 0.037161235
000200 ec d9 51 be cc 98 93 be 1c 89 04 3f 6b d7 46 3e
       -0.20493287 -0.28827512 0.5177171 0.19418113
000210 32 fd 0c 3c 84 3e 29 be f1 73 f5 3c a5 59 a3 bc
       0.008605288 -0.16527754 0.029962512 -0.019940207
000220 0f 8a 36 3e 5c 41 a1 bd 5b 12 67 be 47 be b8 bd
       0.17826103 -0.078737944 -0.22565596 -0.090206675
000230 aa 39 4b be be 4f 32 bd 52 cc 88 bd 82 c5 99 bb
       -0.19846216 -0.04353308 -0.06679596 -0.004692734
000240 e2 4d ab 3e d2 60 91 3e 83 84 cd bc 48 d0 bf 3e
       0.33457857 0.2839418 -0.0250876 0.37463593
000250 1d 59 f5 3c 73 da 74 3e d6 33 aa bd 9c 60 8a bd
       0.02994972 0.23911457 -0.08310668 -0.06756708
000260 84 02 14 be 0f d0 88 be c0 2e ad 3e cb fd 48 bd
       -0.14454085 -0.26721236 0.3382473 -0.04907016
000270 30 a0 bf bc 56 c6 72 3e 40 77 dd bd d0 99 dc bd
       -0.023391813 0.23708472 -0.10813761 -0.10771525
000280 0e 41 89 bd 50 af 72 3e b1 40 9a bd 8e b2 a9 3e
       -0.06701861 0.23699689 -0.0753187 0.3314404
000290 38 fb 7f 3d e3 22 d2 3d 08 91 5b be d2 e1 36 bd
       0.06249544 0.1026056 -0.21442044 -0.044648953
0002a0 53 48 87 bd 8a d4 1e 3d 0f c5 02 3f e4 a8 0d bf
       -0.066055916 0.03877691 0.5108194 -0.5533583
0002b0 0c de 57 3d d1 a0 37 be c9 f0 bb 3e b1 d6 bd 3e
       0.052701995 -0.1793244 0.36707142 0.3707786
0002c0 bb 80 b3 3d f9 ae 8e 3e 69 d4 46 3e 05 4a 15 3e
       0.08764788 0.2786787 0.19416966 0.14579017
0002d0 5f ef eb bc 09 83 32 bd d1 eb 1f 3e 11 83 c9 bd
       -0.028800664 -0.043581996 0.156173 -0.09839452
0002e0 ff 34 db bd c7 a4 69 bd 93 db 3b be 60 2f 84 bd
       -0.107034676 -0.05704191 -0.1834548 -0.064543486
0002f0 a7 f5 b3 3e 4d 13 a1 3c 7f f0 88 be ca 03 08 bd
       0.35148355 0.019662524 -0.26745984 -0.03320674
000300 9f 3b eb 3e f4 b9 a9 bd 33 83 b2 bd 88 52 85 3e
       0.45943925 -0.08287421 -0.087164305 0.2603953
000310 4d 36 8b 3e e2 0d ea bc 27 fb b9 bd 01 49 76 bd
       0.27189866 -0.028571073 -0.09081107 -0.060128216
000320 25 f8 22 be 45 b2 0d be a7 59 2d bd c1 4c 41 3c
       -0.15914972 -0.13837536 -0.042321827 0.011798085
000330 1a 7c 2c 3d 17 23 9b bd ea ac 7b be 53 74 75 3d
       0.04211054 -0.07575052 -0.2457768 0.05992539
000340 fc 1f 12 bd 84 cd d1 bd 8c c4 16 bd 65 2c 57 bd
       -0.035675034 -0.10244277 -0.036808535 -0.052532572
000350 f9 da c7 bc fb 3b f7 bd 3b f8 93 bd 76 8b cd ba
       -0.024396406 -0.12071987 -0.072250806 -0.0015681821
000360 18 9b 06 3c 3a 60 b2 bd 9b 21 f4 3d 95 6c cf bc
       0.008215688 -0.0870976 0.11920472 -0.02532033
000370 66 7b d4 bd ba 1a 72 3e a2 3a 81 be 40 7c 78 3d
       -0.10375099 0.23643008 -0.25240046 0.06066537
000380 cb 33 e1 3e 2f e3 8f be 04 a7 94 be d1 2f 1d 3e
       0.43984827 -0.28103015 -0.29033673 0.15350272
000390 cc 3f 76 3e ae 0c 8c 3e cd b5 95 bd dd 78 79 3e
       0.24047774 0.27353424 -0.07310066 0.24362512
0003a0 3f 11 4a be 2e 62 9e bd 93 84 65 ba a1 52 31 be
       -0.19733141 -0.0773357 -0.0008755412 -0.17316677
0003b0 fe 79 a3 3e 26 fd 26 be db e2 bf 3e ac 7c 61 3e
       0.3192901 -0.16307506 0.37477764 0.22020215
0003c0 5f 32 65 be d3 66 19 be c1 83 0c bd 71 0e 8e 3e
       -0.22382496 -0.1498063 -0.034305338 0.27745393
0003d0 28 da bc 3b 2e a2 7b be 71 2c 74 3e 89 67 92 3e
       0.005763311 -0.24573585 0.23845078 0.28594616
0003e0 74 2b f2 bc 0f 4a 86 3e 23 78 a4 be fd 93 19 be
       -0.029561736 0.26228377 -0.32122907 -0.1499786
0003f0 cc f8 2b 3e a9 d2 03 3e 44 2f 15 bd 69 b3 7c 3e
       0.16794127 0.12873329 -0.03642203 0.24677815

fc1.bias f4 [50]
000000 58 16 a5 3e 39 9b 2e 3e e7 ef 1f 3e fe 81 93 3d
       0.3224361 0.170514 0.15618859 0.072025284
000010 79 b5 85 3d 45 0f 6a 3e a7 a1 bb 3d dd d3 b8 3d
       0.06528754 0.22857387 0.09161692 0.09024785
000020 41 26 f3 3d 34 22 b7 3d 7c 0b 0e 3e 27 28 fe bd
       0.11872531 0.089420706 0.13871568 -0.12410002
000030 ac 10 87 bc 14 c6 24 3e 09 e6 a4 3e 37 c6 a0 3e
       -0.016487442 0.16091186 0.32206753 0.31401226
000040 a6 3f bf 3e 5a f5 8f 3d 8f 68 75 3e e6 3b 98 3e
       0.37353247 0.07029219 0.23965667 0.297332
000050 4e 5f 10 3e 07 ab 93 3d 6d ec 00 3e 21 c2 ac 3e
       0.14098856 0.07210355 0.1259019 0.3374186
000060 f4 e3 28 3e e2 72 10 3e 9a e2 f6 3d a7 34 07 3e
       0.16493207 0.14106324 0.120549396 0.13203679
000070 3e 4f 2e 3e c2 df a1 3e e9 b4 c5 3d d4 92 e9 3d
       0.17022416 0.31616026 0.096536465 0.11404958
000080 30 13 27 3e 9e 9c ff 3d 79 30 da 3e 8d 8a 48 3e
       0.16315913 0.12481044 0.42615107 0.19584103
000090 3a 44 06 3e f1 eb 9a 3c 40 66 30 3d e1 7c 1d 3d
       0.13111964 0.018911334 0.043066263 0.038449172
0000a0 71 90 9a 3c cd 31 db 3d 28 42 78 3e 18 55 b5 3e
       0.018867703 0.10702858 0.24243987 0.35416484
0000b0 12 3f 80 3e fd e4 d6 3d f1 49 63 3e dd 2a 1d 3e
       0.2504812 0.10492895 0.22196175 0.15348382
0000c0 79 80 cf 3e 30 c8 a3 3e
       0.40527704 0.31988668

fc2.weight f4 [1, 50]
000000 ab 70 0b bf ab 76 05 3f be 5f f1 3e 45 41 0b 3f
       -0.5446879 0.521342 0.47143358 0.5439647
000010 ee bf 03 3f 2d c4 fa be e9 fd 08 3f a7 d4 ec 3e
       0.51464736 -0.48977795 0.53512436 0.4625599
000020 cf 6b f9 3e 5c 7d 05 3f e9 fe cb 3e 8a 25 3c bd
       0.48715064 0.5214441 0.3984292 -0.045934238
000030 6c 64 b5 3e 13 25 e3 3e 12 1a 06 bf 09 58 03 bf
       0.35428178 0.44364223 -0.5238353 -0.51306206
000040 b0 87 ed be 6f 7c f9 3e 73 6f 0c bf e9 4e 0e bf
       -0.46392584 0.48727748 -0.5485756 -0.5558916
000050 cd 9c 09 3f bb 25 06 3f 52 a7 0b 3f d1 76 e3 be
       0.53754884 0.5240132 0.54552186 -0.44426587
000060 75 02 e9 3e e6 b3 07 3f 39 28 e6 3e 6e dc de 3e
       0.45509687 0.5300888 0.44952562 0.4352755
000070 cf fc 07 3f 15 dd 15 bf 72 0e 07 3f 5b 0a 0a 3f
       0.5312013 -0.5854047 0.52756417 0.5392205
000080 e5 fe 17 bf f6 41 e4 3e 9c 01 e8 be 39 cc cf 3e
       -0.59373313 0.44581574 -0.45313728 0.40585497
000090 00 a3 d3 3e 12 4b 0d 3f d2 4d fa 3e f4 cc 10 3f
       0.41335297 0.55192673 0.48887497 0.56562734
0000a0 22 44 0a 3f f9 24 06 3f 5d 05 13 bf df a7 d9 be
       0.5401021 0.52400166 -0.5743006 -0.42510888
0000b0 d0 48 0e bf 8a 2c 08 3f 2a 87 0c bf b2 de 00 3f
       -0.55579853 0.5319296 -0.54893744 0.50339806
0000c0 35 9d fc be 68 c1 f7 be
       -0.4933869 -0.48389745
